…
                 'MOTION_STREAM_N_HEADS': 12,
                 'MOTION_STREAM_SEP_POS_EMB': False,
                 'USE_MOTION_STREAM': True,
                 'ZERO_INIT_UNIONHOIVIT': False},
 'X3D': {'BN_LIN5': False,
         'BOTTLENECK_FACTOR': 1.0,
         'CHANNELWISE_3x3x3': True,
         'DEPTH_FACTOR': 1.0,
         'DIM_C1': 12,
         'DIM_C5': 2048,
         'SCALE_RES2': False,
         'WIDTH_FACTOR': 1.0}}
Using TanH activation in MLP
<<<<<<< HEAD
[05/28 15:45:24][INFO] misc.py: 184: Model:
DistributedDataParallel(
  (module): Motionformer(
    (patch_embed_3d): PatchEmbed(
      (proj): Conv3d(3, 768, kernel_size=(2, 16, 16), stride=(2, 16, 16))
    )
    (pos_drop): Dropout(p=0.0, inplace=False)
    (blocks): ModuleList(
      (0): TrajectoryAttentionBlock(
        (norm1): LayerNorm((768,), eps=1e-06, elementwise_affine=True)
        (attn): TrajectoryAttention(
          (qkv): Linear(in_features=768, out_features=2304, bias=True)
          (proj_q): Linear(in_features=768, out_features=768, bias=True)
          (proj_kv): Linear(in_features=768, out_features=1536, bias=True)
          (attn_drop): Dropout(p=0.0, inplace=False)
          (proj): Linear(in_features=768, out_features=768, bias=True)
          (proj_drop): Dropout(p=0.0, inplace=False)
        )
        (drop_path): Identity()
        (norm2): LayerNorm((768,), eps=1e-06, elementwise_affine=True)
        (mlp): Mlp(
          (fc1): Linear(in_features=768, out_features=3072, bias=True)
          (act): GELU(approximate='none')
          (fc2): Linear(in_features=3072, out_features=768, bias=True)
        )
      )
    )
    (norm): LayerNorm((768,), eps=1e-06, elementwise_affine=True)
    (pre_logits): Sequential(
      (fc): Linear(in_features=768, out_features=768, bias=True)
      (act): Tanh()
    )
    (head_drop): Dropout(p=0.0, inplace=False)
    (head0): Linear(in_features=768, out_features=97, bias=True)
    (head1): Linear(in_features=768, out_features=300, bias=True)
  )
)
[05/28 15:45:24][INFO] misc.py: 185: Params: 11,095,693
[05/28 15:45:24][INFO] misc.py: 186: Mem: 0.08286905288696289 MB
[05/28 15:45:26][WARNING] jit_analysis.py: 499: Unsupported operator aten::repeat encountered 1 time(s)
[05/28 15:45:26][WARNING] jit_analysis.py: 499: Unsupported operator aten::repeat_interleave encountered 1 time(s)
[05/28 15:45:26][WARNING] jit_analysis.py: 499: Unsupported operator aten::add encountered 4 time(s)
…
